Bikeshare.pt (torch_old, 165127 bytes, 30 tensors)

cont_norm.weight f4 [6]
000000 11 78 d9 3f 22 0a 94 3e f5 f0 4c 3e dc ad fa 3d
       1.6989766 0.2891398 0.20013793 0.12240192
000010 00 45 96 3e 7b a2 30 3f
       0.29349518 0.68997926

cont_norm.bias f4 [6]
000000 8b 9a 06 bb f4 c8 69 bd fa 99 cc 3c b5 33 b6 3c
       -0.0020538892 -0.05707641 0.024975765 0.022241453
000010 07 ab 23 3d 81 ae d6 3d
       0.039958026 0.10482503

cont_norm.running_mean f4 [6]
000000 ab f5 78 44 d0 14 23 42 ae fe 93 c2 5b e2 22 42
       995.83856 40.770325 -73.99742 40.72105
000010 c8 0d 94 c2 03 8f e8 3f
       -74.02692 1.8168644

cont_norm.running_var f4 [6]
000000 a4 15 2b 4d d6 3c 8a 44 7d 08 64 45 6d 51 8a 44
       1.7939514e+08 1105.9011 3648.5305 1106.5446
000010 35 fd 63 45 9e f1 b2 40
       3647.8254 5.5919943

layers.0.weight f4 [200, 6]
000000 91 7f 3b 3f e1 3a f0 bd 00 91 88 be b5 96 2d 3e
       0.73241526 -0.1172998 -0.26673126 0.16952021
000010 52 36 9d bd 78 89 60 bd 8a 69 a0 3e ca fb 63 3e
       -0.076763764 -0.0548186 0.3133052 0.22264019
000020 2f 5a 5d 3c 0c 27 d3 bb f2 03 56 3b 9e 99 bf 3d
       0.013510271 -0.0064438637 0.003265616 0.09355472
000030 9a 42 80 bf 30 33 40 bc 0e 87 78 bc 09 1f a4 3c
       -1.0020325 -0.011730954 -0.015168918 0.02003433
000040 68 56 5c bc 89 b2 f6 be 69 e2 70 3e 90 24 bc be
       -0.013448335 -0.48183087 0.23523869 -0.36746645
000050 98 80 1d 3e b7 cf 9a be ea d4 d2 3c f2 7f 77 3e
       0.15381086 -0.302366 0.025736291 0.24169901
000060 69 93 46 bf ea 36 bc 3b 4e c6 0e bc fc 05 17 bc
       -0.7756868 0.005743851 -0.008714272 -0.009217735
000070 20 e4 16 bf ef ec 0b 3e c6 bd f7 3e 5c e2 9c 3a
       -0.5894184 0.13664602 0.48386973 0.0011969316
000080 11 67 fb bb a2 96 ae bc e5 74 91 3e a0 9c 82 b8
       -0.0076721986 -0.021312062 0.28409496 -6.228057e-05
000090 ee 9a 73 bf 5d 3d d4 be 58 d3 5d 3a cb bd 9a bc
       -0.9515828 -0.41453066 0.00084619736 -0.018889328
0000a0 5d 3d e2 3d b3 58 ae be 4b af f6 3e 3d 51 65 be
       0.1104686 -0.34052047 0.48180613 -0.22394271
0000b0 52 d8 99 3e 91 16 30 3e 2e 22 84 be 25 02 8b 3d
       0.30047852 0.17196108 -0.25807327 0.067875184
0000c0 a5 9a 42 bf a3 d8 87 3d 66 da 8a bd d5 35 b4 3e
       -0.7601722 0.06633117 -0.067799374 0.3519732
0000d0 18 0d cf be a9 b8 96 3e 11 cc f2 3e e6 05 80 39
       -0.40439677 0.2943776 0.47421315 0.00024418457
0000e0 58 4f e7 3c 05 8c 68 3b 68 52 5a 3c b8 47 23 3d
       0.028236076 0.0035483849 0.013325311 0.03986332
0000f0 4e 38 1f 3f fa 20 3a be 22 19 37 3e 44 73 ed 3c
       0.6219529 -0.18176642 0.17880681 0.028985627
000100 70 6a fc 3d 0e 3d 4d 3e af dc c2 3e 4a 11 7d bd
       0.12324989 0.20042822 0.38058993 -0.061784066
000110 76 f4 a5 bc 3f 3e 2a be 4a 29 af 3d 08 52 94 bd
       -0.02025817 -0.16625308 0.08552797 -0.07242209
000120 95 c2 d5 3e c7 b1 2a 3d e5 e5 75 3a ed dd 44 3c
       0.41750017 0.041673448 0.0009380265 0.012015802
000130 46 c7 dc be 49 b3 3a 3d ba 44 32 bf 82 3a a8 bc
       -0.43120784 0.045581136 -0.6963612 -0.020535711
000140 52 45 2a 3e 7b ea 06 bd f1 4c 35 3d c7 44 87 3e
       0.16628006 -0.03293846 0.04426283 0.2641966
000150 24 0b 7f bf 70 ea b0 bb 19 57 0f 3c 3c 0a 1b bb
       -0.99626374 -0.005399041 0.008748793 -0.0023657223
000160 7b 3c 8e 3b c7 6b 15 3e ff b9 bf 3e 14 00 69 3e
       0.004340706 0.14591895 0.3744659 0.22753936
000170 46 61 c7 3e 21 b8 a5 3d 89 c8 0a 3d 03 44 ad 3d
       0.389414 0.080917604 0.03388265 0.08460238
000180 84 4a 09 3f c2 db ff bc 89 a3 d3 3c bf d1 c9 3d
       0.53629327 -0.031232718 0.025834816 0.09854459
000190 78 e9 5c 3c 39 6e 8d 3d 6e 07 9f 3e 9d 4c d7 3d
       0.013483398 0.06905789 0.31060356 0.1051266
0001a0 21 c1 7d 3c f9 1a 03 bd a8 38 2e be 4d 5b 9a be
       0.01548794 -0.032008145 -0.170138 -0.30147782
0001b0 d2 f7 27 bf 15 62 26 bd 16 a7 6e 3e 61 1e 26 bd
       -0.6561252 -0.040620882 0.23305926 -0.040556315
0001c0 8d c8 a6 3e 77 97 ba 3d 60 a4 c3 be a9 e2 d1 3c
       0.32574883 0.09110921 -0.38211346 0.025620775
0001d0 ac 42 5b 3e 79 c6 0d be 91 f0 97 bd 82 f4 88 bf
       0.21412152 -0.13845243 -0.07418931 -1.0699618
0001e0 bb 92 42 bf 96 1c b0 b9 14 f3 05 3c 92 58 92 ba
       -0.7600514 -0.00033590634 0.00817563 -0.0011165312
0001f0 1c 6d f6 b8 ee 15 40 3d 7b 53 9f 3e 22 59 cc 3e
       -0.00011750517 0.046895914 0.31118378 0.39911753
000200 a2 ab 84 be 63 7f 3a be 2a 4e a8 bd 0a 68 b4 3d
       -0.25912195 -0.18212657 -0.082180336 0.088089064
000210 90 bd 11 3f 04 b2 25 3c 9c 3c 63 3b d1 b8 9a 3a
       0.56929874 0.010113243 0.0034673577 0.0011804347
000220 d7 30 5d 3c 12 82 7e 3d 51 6d e8 3e 78 75 d2 ba
       0.013500414 0.062135763 0.45395902 -0.0016056737
000230 c6 9e a0 3c 75 f6 11 3c 38 a1 fd 3c ee 40 87 3e
       0.01960696 0.008908858 0.030960664 0.26416725
000240 07 b9 c4 3e ae 0f 2b be 7c af 8a be 21 45 8d 3e
       0.38422415 -0.167052 -0.2708701 0.27591804
000250 3b 1a 3c be 86 ba cf 3d df 32 e4 3e ba ee c9 bd
       -0.18369381 0.101429984 0.44570062 -0.098599866
000260 df ae 30 3e ed 68 9c bd 2e 1e 3b 3d 8c 01 d7 bd
       0.17254208 -0.076372005 0.04568308 -0.10498342
000270 93 94 bf 3e 05 0b 1c be 2a fa 41 3e 3b 8f 6e 3e
       0.3741804 -0.15238579 0.18943086 0.23296826
000280 84 83 1c bc 25 4a 8d 3b 78 a7 57 be f2 12 ce bb
       -0.00955284 0.004311817 -0.21059978 -0.0062888796
000290 8a 68 99 ba 78 1b bb bc 82 57 97 bc 4c 1f 59 bf
       -0.0011704129 -0.022840247 -0.018474344 -0.8481338
0002a0 cc 63 5b bf d9 81 b3 3e 9f 72 27 be 59 6e 9f bc
       -0.8569915 0.35060003 -0.16352318 -0.019461798
0002b0 c8 83 b7 3a 20 a6 10 3e 95 bc 49 bf f9 3b 62 bc
       0.0014001066 0.14125872 -0.7880338 -0.013808244
0002c0 75 e9 fe bd 9a 38 72 bc 22 97 dd 3b 2e 28 34 be
       -0.12446872 -0.014784003 0.006762401 -0.17593452
0002d0 54 ca 86 3e ad 23 33 3c 2e cd 1b be 02 64 1c 3d
       0.2632624 0.010933799 -0.15214989 0.038181312
0002e0 9a 13 b8 be 1e 9a 8d 3d 27 9c 08 3f a8 e5 54 be
       -0.35952455 0.06914161 0.5336327 -0.20790732
0002f0 b4 1d 75 3b 91 4f 03 3d 82 bb bf 3d 5e 48 f5 3d
       0.0037401738 0.032058302 0.09361936 0.119766936
000300 f2 9a 75 bf 29 e9 4f bc 80 02 f6 b7 1d 55 09 3b
       -0.9593955 -0.012689867 -2.932665e-05 0.0020955272
000310 6c 11 39 ba 09 2c 22 3e f1 d7 fd 3e 41 da 4e 3e
       -0.0007059786 0.1583711 0.49578813 0.20200445
000320 95 c1 67 be 44 70 87 be 47 f9 33 3e d5 79 1f 3c
       -0.2263244 -0.2645284 0.1757556 0.009733637
000330 12 19 05 3f d9 7e 2e bd 89 c5 99 be 36 ed 17 3d
       0.5199138 -0.04260144 -0.3003352 0.037091456
000340 76 a7 8b 3c 9e 39 cf 3d d3 81 8a bc 6f fe 91 3e
       0.017047625 0.101184115 -0.016907608 0.2851443
000350 ec 59 08 3f 8d 9d 3c be 9a 75 73 bd da d6 2f be
       0.5326221 -0.18419476 -0.059438325 -0.17171803
000360 1b b1 f2 3e 93 ad 8e 3e e9 4e 59 3e b4 1b d5 bd
       0.47400746 0.27866802 0.21221508 -0.104056746
000370 0d d1 41 be aa 55 1a 3e 84 97 b1 3e e4 79 86 bd
       -0.18927403 0.15071741 0.3468591 -0.065662175
000380 32 7c 74 be cc 62 80 3e 2e 32 ce bc 8a ba fc bd
       -0.23875502 0.25075376 -0.025170412 -0.12340267
000390 6e 2a 6f bf 33 3d 10 3c df 80 14 3c 6b 6d 19 bc
       -0.9342412 0.0088036535 0.009063928 -0.009364466
0003a0 fe 3b 4b bc c5 82 d9 3d 00 e0 7b bf df 0b 78 bc
       -0.01240444 0.106206454 -0.9838867 -0.015139549
0003b0 bc dc 6d 3c 34 20 92 3c 40 d0 df 38 3f 71 68 3e
       0.014517959 0.017837621 0.00010672258 0.2269945
0003c0 2f 12 eb be 3e fd a8 be d8 ca 9c be 69 99 97 3e
       -0.4591231 -0.33005708 -0.30623507 0.2960923
0003d0 ec 3a 83 be 07 95 3b 3e 0f 82 3d bf 01 4f 85 bd
       -0.2563089 0.18318568 -0.7402658 -0.065092094
0003e0 c3 14 bf be c2 82 84 3e c6 ad 07 3e 88 96 85 3e
       -0.37320527 0.2588101 0.13249883 0.2609141
0003f0 ce 2c ee 3e 58 cb 2c bc cb 2d 30 3c 4e 7a b7 3c
       0.46518558 -0.010546528 0.010753105 0.022397187

layers.0.bias f4 [200]
000000 e7 42 2b 3e 51 11 4d 3d 83 81 73 be 72 68 7a be
       0.1672474 0.050065342 -0.23779874 -0.24453905
000010 6e aa da bd b2 43 c2 bd 8a 65 a7 be a2 4a 56 be
       -0.10677038 -0.09485568 -0.32694656 -0.20926908
000020 c1 54 2b be 61 80 b2 3e 9f d2 c5 3d 46 b7 a2 3e
       -0.1673155 0.3486357 0.096593134 0.31780452
000030 36 17 c0 bc f6 bd 60 3b 04 64 e7 bb f3 80 60 3e
       -0.023448568 0.0034292913 -0.0070614833 0.2192419
000040 a1 52 82 3e 0a a6 df be 81 d4 7b be 15 61 42 be
       0.25453666 -0.43681365 -0.24592783 -0.18982346
000050 8f 3c 26 3f a1 39 29 be a6 43 f1 3e 3e b7 9c 3e
       0.64936155 -0.1652589 0.47121924 0.30608553
000060 c6 3c 15 be ac 8b d2 3e 91 dc b6 bd c7 12 71 be
       -0.14573964 0.41122186 -0.089287885 -0.23542319
000070 b2 7c b8 bd 2f bf 02 3f 3f e2 7d bd 78 e8 f0 bb
       -0.09008159 0.51072973 -0.061983343 -0.007351931
000080 93 ff 49 3d 48 d1 e6 bb dc 38 02 3c 2a 3e b9 3d
       0.049316 -0.0070439912 0.007948127 0.0904506
000090 60 95 c6 3d 73 a7 ec be 23 f4 a7 3d 3c af 24 3d
       0.0969646 -0.46221504 0.08200862 0.04020618
0000a0 00 1f e0 bd e0 47 03 be 51 61 da 3e d1 9b c5 be
       -0.10943413 -0.12820387 0.42652372 -0.3859544
0000b0 c2 cf 44 be b9 dc 5e bd 05 bb dc bd db d2 88 be
       -0.19219878 -0.054409716 -0.10777859 -0.2672337
0000c0 a1 1c c1 3b b5 36 bd be 0f 32 9d be 56 e8 dd 3e
       0.0058933054 -0.369558 -0.30702254 0.4334132
0000d0 1f dd 94 3e c4 3f 17 be 9f b7 53 be 02 0d a3 bc
       0.29074952 -0.14770418 -0.20675515 -0.019903664
0000e0 f3 9e 87 be 95 09 0c bf 6d f1 5d 3e 41 e1 94 3e
       -0.26488456 -0.5470212 0.21674128 0.29078105
0000f0 5e c7 42 3d c2 6d 1b 3e 9c d1 db be aa 68 63 3c
       0.047553413 0.15178588 -0.42933357 0.013879934
000100 05 9d 6b be cb dc a9 bc 4e 38 aa 3e 48 14 6b bd
       -0.23009117 -0.020735165 0.33246082 -0.05739239
000110 99 24 99 bd eb d8 83 3b cd cb 79 3e 24 6e a4 3e
       -0.074776836 0.0040236614 0.2439415 0.3211528
000120 ed 44 91 bc 03 88 0f 3f de 90 65 3d d6 f7 31 3e
       -0.017733062 0.5606691 0.05604636 0.17379698
000130 f5 5d 04 3e fc 6d 02 3f 9f f8 c9 3b ae 19 98 bd
       0.12926467 0.5094907 0.006163671 -0.07426773
000140 a0 7d 10 3e a0 2f 84 be af fc aa be 02 96 4d be
       0.14110422 -0.25817585 -0.33395907 -0.20076755
000150 5c 37 11 bd c1 4e ae 3e b2 4b 63 3e 5a 4f 36 3e
       -0.035453185 0.3404446 0.22196844 0.17803708
000160 62 8c 16 3f e2 b4 12 be 68 e4 88 3d 3b 39 91 3d
       0.5880796 -0.14326814 0.0668419 0.07090994
000170 ff 36 71 3e 9d f2 58 3d 55 b5 95 3e a5 57 40 3e
       0.23556136 0.05296575 0.29239908 0.18783434
000180 3a 01 fc 3e 30 e8 12 3f 5e 0c 91 be 40 4b 52 be
       0.49219686 0.5738554 -0.28329748 -0.20536518
000190 35 f4 99 be f5 f0 66 bc 4d d6 4f be 57 5b 81 bd
       -0.30069128 -0.014095535 -0.20296593 -0.0631625
0001a0 1a 64 fb 3d 64 b5 89 bc 5a 26 8e 3c 6d a0 b8 be
       0.12274952 -0.016810127 0.017352272 -0.36059895
0001b0 f7 ff 7b 3d 92 c8 9f be be ca af 3e 62 fc 16 bf
       0.061523404 -0.3120771 0.34334368 -0.58978856
0001c0 a4 6f 44 3e 40 38 25 3d 72 c9 18 3e 3c 9e 3f be
       0.19183213 0.040336847 0.14920595 -0.18712705
0001d0 91 0f 77 3c 2b 93 25 be 3c c4 cf 3e 11 7f a3 3e
       0.015079395 -0.16169421 0.40579402 0.3193288
0001e0 3a 14 83 be ca 80 aa 3d a3 86 93 bd ad e7 70 be
       -0.2560137 0.08325346 -0.07203414 -0.23525877
0001f0 2d fe c9 bd 16 a9 a0 3d 74 bb 93 be a1 52 85 be
       -0.09862933 0.078447506 -0.28853953 -0.26039603
000200 35 38 72 3e a4 36 02 bf 64 da f1 3e 95 e2 d3 bb
       0.23654254 -0.50864625 0.4723693 -0.0064662197
000210 bc 05 aa bd d5 ed d9 3e 60 ac ed bd 07 71 9a be
       -0.08301875 0.42564264 -0.116051435 -0.30164358
000220 14 4b 52 bd 7d f5 87 be 86 05 92 bd 4b 00 59 3e
       -0.05134113 -0.2655448 -0.0712996 0.21191518
000230 26 b9 e5 bd 01 88 cd 3e ee a6 c8 3d cb 26 cb 3e
       -0.11216955 0.40142825 0.09797464 0.39678034
000240 41 75 27 be ba 3a 73 3e 2b 10 ed 3c e5 88 d7 be
       -0.16353323 0.23752871 0.028938374 -0.4209663
000250 53 cb 90 3e 38 e7 ae 3e 4e 0e ea be 15 7d ce 3c
       0.28280124 0.3416078 -0.4571404 0.025206128
000260 08 7e 54 3e 6b 39 f3 3b e2 ab 27 3d eb b1 97 3e
       0.20751202 0.0074226162 0.040935405 0.29627928
000270 e2 bb 74 3e f8 b7 d9 3d 5f 09 6b 3e 93 df 98 bd
       0.23899797 0.106307924 0.22952794 -0.074645184
000280 c7 50 a7 bd a5 63 db 3c 42 86 be bd 59 63 72 3e
       -0.08169704 0.026780913 -0.093029514 0.2367071
000290 9a bf 53 bd cd fe d7 be 46 4d 18 be 5a 39 b6 3e
       -0.051696397 -0.42186585 -0.14873227 0.3559063
0002a0 59 eb ae 3c 5e e1 ac be 20 91 d9 3e 03 cc 14 3f
       0.021352457 -0.33765692 0.42493534 0.581238
0002b0 73 a5 02 bf aa 5c 92 3d d5 95 16 bf db 1b 57 3f
       -0.51033705 0.071465805 -0.58822376 0.8402688
0002c0 69 ea 10 3f ec b7 0f 3e 3f f4 5e 3d 2a 02 6e be
       0.5660768 0.14035004 0.05443215 -0.23243013
0002d0 6c 3c 1b bf 0d 74 f5 3e 41 3d a7 3e ed 49 fb be
       -0.6063907 0.47940102 0.3266392 -0.49079838
0002e0 cb 97 bd 3e f1 29 82 be b7 aa 24 3d e1 bf 2d bf
       0.3702987 -0.25422624 0.04020187 -0.6787091
0002f0 e4 b6 84 bd 63 4a 7b bd b7 7e b7 bd 4c d0 f1 3d
       -0.06480196 -0.061350238 -0.08959716 0.118073076
000300 a2 2f 82 be 72 1f 08 3f 1a 11 80 bd a3 85 b0 bd
       -0.25426966 0.5317298 -0.06253262 -0.08619239
000310 89 65 d5 bc 13 cf 09 3d 74 0e 83 3d 31 0e 95 be
       -0.026049392 0.033644747 0.06399241 -0.2911239

layers.2.weight f4 [200]
000000 02 cb 86 3f 33 d3 73 3f d1 f0 50 3f 9d a5 4d 3f
       1.0530703 0.9524414 0.81617457 0.8033083
000010 39 5f 70 3f 4c 4e 92 3f ed 49 48 3f cd 7f 94 3f
       0.938953 1.1430144 0.782378 1.1601502
000020 3c 44 68 3f f6 6e b6 3f 43 31 8e 3f 5c fd 6d 3f
       0.9072912 1.4252613 1.1108783 0.9296472
000030 f1 e0 98 3f 4a 47 53 3f 13 f8 80 3f 09 a0 43 3f
       1.1943647 0.82530653 1.0075706 0.7641607
000040 4a 3e 99 3f 02 12 8b 3f d7 ba 82 3f eb b7 2a 3f
       1.1972134 1.086487 1.0213269 0.66686887
000050 a0 8f 87 3f 3c 02 64 3f 12 82 b2 3f b9 b6 9d 3f
       1.0590706 0.8906591 1.3945944 1.2321388
000060 b5 f8 50 3f 12 c2 6a 3f e8 fc 93 3f 49 dc 55 3f
       0.81629497 0.9170238 1.1561556 0.83539253
000070 d8 07 5d 3f 76 7b 1f 3f 19 23 77 3f a9 d7 a2 3f
       0.86340094 0.6229776 0.9653793 1.2722064
000080 f1 44 81 3f 6b 28 77 3f d6 25 95 3f 66 08 27 3f
       1.0099164 0.9654605 1.1652172 0.6524719
000090 be c8 76 3f e1 1f 98 3f c1 06 75 3f df b8 76 3f
       0.9640006 1.1884729 0.9571343 0.9637584
0000a0 7d e0 0b 3f 94 88 5b 3f 3d d9 bd 3f 2d 1a 92 3f
       0.54639417 0.85755277 1.4831921 1.1414238
0000b0 0a 04 47 3f 8b 25 8b 3f da 64 44 3f 0a b5 88 3f
       0.7774054 1.0870832 0.7671639 1.0680249
0000c0 4f 34 8d 3f 87 3a 92 3f 88 c2 82 3f a1 ac ac 3f
       1.1031588 1.1424111 1.0215616 1.3490182
0000d0 14 bb 9a 3f 2d 33 49 3f 91 6d 3a 3f 7f 25 82 3f
       1.2088342 0.78593713 0.72823435 1.0167693
0000e0 72 cb 7a 3f 54 5f 5c 3f de 47 12 3f be bd a8 3f
       0.9796668 0.8608296 0.5714091 1.3182905
0000f0 78 27 8a 3f 72 0c 8f 3f 90 c5 6e 3f ed 12 07 3f
       1.0793295 1.1175673 0.93270206 0.52763253
000100 51 a9 75 3f 99 4a a0 3f 2b 30 88 3f 7b 92 7b 3f
       0.9596148 1.2522765 1.06397 0.98270386
000110 07 4c 5e 3f 72 49 7d 3f a3 de ac 3f 4a de 8c 3f
       0.8683476 0.98940194 1.3505443 1.1005337
000120 7c 1b 9a 3f 33 b6 8b 3f fa f1 24 3f da 15 2b 3f
       1.2039638 1.0914978 0.64431727 0.6683022
000130 67 42 18 3f 1b e8 98 3f 4e 2b 48 3f 79 60 9b 3f
       0.5947632 1.1945833 0.7819108 1.2138816
000140 ab 6e 47 3f 44 dd 14 3f 0e ae 35 3f a0 73 48 3f
       0.7790324 0.58150125 0.7096871 0.7830143
000150 32 14 17 3f 32 6a 82 3f e1 60 7a 3f 15 76 4c 3f
       0.5901519 1.0188658 0.97804075 0.7986768
000160 a3 2d 5e 3f 66 a9 87 3f c8 b6 75 3f ff fb 51 3f
       0.86788386 1.0598571 0.9598203 0.8202514
000170 4b 1a 96 3f a5 6c 53 3f c1 80 91 3f b4 12 c0 3f
       1.1726774 0.82587653 1.1367418 1.5005708
000180 fe 3a 43 3f b0 09 4e 3f 52 20 71 3f c8 d4 6c 3f
       0.7626189 0.8048353 0.9418994 0.9251218
000190 51 d1 8e 3f 2e 57 af 3f 7c 3f 51 3f 64 5f 6a 3f
       1.1157628 1.369848 0.81737494 0.91551805
0001a0 2a 48 1a 3f b7 b4 7b 3f 46 f2 61 3f 1d 67 3e 3f
       0.60266364 0.98322624 0.88260305 0.7437609
0001b0 7d f5 8b 3f e8 19 87 3f 81 71 8d 3f 3b f6 73 3f
       1.0934292 1.0554781 1.1050264 0.9529759
0001c0 04 3a 95 3f 0d f1 84 3f 3a e3 97 3f 0e 2e 81 3f
       1.165833 1.0386063 1.1866219 1.009218
0001d0 0f 06 51 3f fa a9 59 3f 59 5f 91 3f e0 5b fa 3e
       0.8164987 0.8502499 1.1357223 0.4889822
0001e0 af e8 71 3f 8b c0 50 3f d2 0d 3f 3f 6a 62 61 3f
       0.9449567 0.815438 0.74630463 0.8804079
0001f0 68 df 0b 3f 65 81 44 3f 93 f7 8d 3f 7d 17 86 3f
       0.54637766 0.7675994 1.1091179 1.0475918
000200 4f 53 67 3f fc 9d 7f 3f 9b 39 a6 3f f5 7c 7f 3f
       0.90361494 0.9985044 1.298633 0.99800044
000210 fb 80 43 3f 56 97 95 3f 3a 28 60 3f 2e f6 62 3f
       0.76368684 1.1686809 0.8756138 0.8865689
000220 2e d3 55 3f a0 b2 6e 3f bd bf 94 3f 99 3f 9e 3f
       0.8352536 0.9324131 1.1621014 1.2363158
000230 be dd 7f 3f d9 38 b5 3f cf fb 6b 3f 00 e2 87 3f
       0.99947727 1.4157974 0.92181104 1.0615845
000240 37 36 60 3f c2 0a b2 3f 7c 11 89 3f 12 9f 52 3f
       0.87582725 1.3909533 1.0708461 0.8227397
000250 37 4c b1 3f 5d bd 81 3f 6e 69 4e 3f 89 cc 6c 3f
       1.3851384 1.0135914 0.8062962 0.92499596
000260 88 82 9d 3f b0 e4 28 3f 68 01 1c 3f e4 f6 8d 3f
       1.230546 0.6597395 0.60939646 1.109097
000270 44 5a 93 3f 6f 25 7c 3f 64 e8 e0 3e 1f f3 bb 3e
       1.1511922 0.9849462 0.439273 0.36708924
000280 4f 8e 4a 3f d4 b5 8b 3f 26 5e 8d 3f 82 25 3a 3f
       0.79123396 1.0914865 1.1044357 0.7271348
000290 15 fc 72 3f d5 05 63 3f a7 f5 61 3f 70 db 34 3f
       0.94915897 0.88680774 0.8826546 0.70647335
0002a0 e9 07 59 3f dd 07 67 3f 18 45 88 3f ba 01 87 3f
       0.84777695 0.90246373 1.0646086 1.0547402
0002b0 af be 61 3f b2 20 45 3f 89 0e 2b 3f a4 14 80 3f
       0.88181585 0.77003014 0.66819054 1.0006299
0002c0 0a eb 4d 3f 45 eb 74 3f 79 0e 80 3f 5e 52 5c 3f
       0.80436766 0.9567149 1.0004417 0.8606318
0002d0 74 c2 81 3f 43 9b 32 3f 89 05 5c 3f 09 97 90 3f
       1.0137467 0.6976816 0.85945946 1.1296092
0002e0 eb 30 9d 3f e0 d8 5f 3f 65 95 5c 3f 9a 04 85 3f
       1.2280554 0.874403 0.8616546 1.0392029
0002f0 85 8b 56 3f e9 29 84 3f 52 2c 7b 3f c9 ae a8 3f
       0.8380664 1.032529 0.981145 1.317834
000300 32 d8 85 3e 57 5c ad 3f b4 19 96 3f 04 8c 35 3f
       0.26141506 1.3543805 1.1726594 0.7091677
000310 b8 33 53 3f eb 8f 87 3f 3b f0 90 3f fc 0b 1e 3f
       0.8250079 1.0590795 1.1323313 0.61737037

layers.2.bias f4 [200]
000000 a9 df 98 3d c8 20 51 3d 59 4a 43 3d cb 04 e8 3d
       0.07464535 0.051056653 0.047678325 0.11329039
000010 f9 35 96 3e 04 64 4e 3d 6d d3 a5 3d 1f dc 94 3d
       0.29338053 0.05038835 0.08096967 0.07268547
000020 b6 e9 20 3e dd e4 57 3c 66 6f c0 3d 88 3b 9e 3d
       0.15714154 0.013177124 0.093962476 0.077261984
000030 56 48 8e 3d 70 24 90 3d d3 ef ed 3e 02 1b f9 3d
       0.06947391 0.070382 0.46472034 0.121633545
000040 b7 08 2f 3d e0 cd 7e 3d 6e 80 e8 3d e7 14 f6 bd
       0.04273292 0.062208056 0.11352621 -0.120157056
000050 85 49 e6 3d 37 2a 8d 3d d4 5c 05 3d 7b f3 1e 3e
       0.112444915 0.068928175 0.03255923 0.15522568
000060 ee 1e f0 3d 0c f7 95 3d ff 72 b4 3d 64 d8 6b be
       0.11724649 0.07322511 0.08810996 -0.23031765
000070 14 5d 17 3e 8c c8 9d be eb 65 de 3d 3b 10 a8 3d
       0.147816 -0.30817068 0.10859283 0.08206221
000080 6c fc 76 3e d6 75 3c 3d e2 39 74 3d 3d 3d 09 bd
       0.24119729 0.046010815 0.059625514 -0.033505667
000090 1b ae af 3d 8f 1a 4d 3d b0 eb 5f 3e dd 97 2c 3e
       0.0857813 0.050074156 0.21867251 0.16854806
0000a0 e8 ce 26 3d 16 f4 56 3c 65 e9 2b 3d 0e d7 c2 bc
       0.040724665 0.013119718 0.04197063 -0.023784187
0000b0 37 72 e1 3d da 01 86 3d aa f8 ef 3c fb b6 38 3e
       0.11008113 0.06543322 0.029293377 0.18038552
0000c0 c5 a8 f2 3e ec 4e a4 3d 49 57 bf 3d b7 a2 5d 3d
       0.47394386 0.08022866 0.0934282 0.054110255
0000d0 6e 7a 72 3e 6c 9f a2 be 55 49 3c 3d 29 50 94 3d
       0.23679516 -0.31762254 0.045968372 0.07241852
0000e0 84 a8 da 3d 57 58 4a 3b 92 66 01 3d 98 19 b7 3c
       0.10676673 0.0030875409 0.03159196 0.022351071
0000f0 d3 b2 29 3e f4 10 71 3d b7 7e e0 3d 7f 49 ca 3c
       0.16572122 0.05885406 0.10961669 0.024693249
000100 2c bf 26 3e 42 2e 96 3d f0 02 ad 3b 9b 95 50 3e
       0.16283864 0.07333042 0.005279891 0.2036957
000110 0e 85 de 3c 61 01 63 3e 78 3d d8 3a ef b5 76 3d
       0.027163055 0.22168495 0.0016497811 0.0602321
000120 0f c6 2e 3d 67 21 04 be fc 8b 77 bd 64 da 78 be
       0.042669352 -0.12903367 -0.060436234 -0.2430206
000130 0c 18 86 bb 11 11 32 3d ef 15 e9 3d 95 78 0e 3f
       -0.004092222 0.043473307 0.113811366 0.55652744
000140 8c 15 e3 bd f4 db af bd 20 bc de 3c 4d 93 c8 3d
       -0.11088094 -0.085868746 0.027189314 0.097937204
000150 21 25 15 bc f1 ed a5 3d 5c 77 ae 3d 4f 7c 48 be
       -0.0091030905 0.08102024 0.0851886 -0.1957867
000160 80 18 5c be 9a 25 26 bd bb e0 7d 3d 07 bb 34 bd
       -0.21493721 -0.040563203 0.061981898 -0.044123676
000170 41 16 a4 3d 4c db fd 3d fc b4 cb 3d 3d 09 1f 3c
       0.08012057 0.12395343 0.099466294 0.009706792
000180 71 9c e9 bd 47 98 83 be f0 b1 f5 3d 21 db ea 3d
       -0.11406792 -0.25702116 0.119968295 0.11467577
000190 12 da 55 bd f7 1b 19 3d b0 2f 73 3c 5c 37 97 3d
       -0.05220992 0.037380185 0.014842913 0.07383606
0001a0 e1 f5 45 bd ed dd 4c 3c fb d2 06 3e 6a ce b9 3d
       -0.04833019 0.012504083 0.1316642 0.090725735
0001b0 5a 9d e9 3d d1 93 b5 3d 7e 8e ea 3c 40 aa e3 3d
       0.114069656 0.08866084 0.028632399 0.11116457
0001c0 ac 15 99 3d 7d 0c a7 3e e5 c4 0c 3d 18 c2 90 3e
       0.07474837 0.32626715 0.03436746 0.28273082
0001d0 0b 32 74 be 1b 88 12 3d f8 85 3c 3e 5c ad 7e bc
       -0.23847215 0.03577433 0.1841048 -0.015544262
0001e0 ee 9e f9 3d 38 f4 20 be 45 51 17 bd d8 88 d2 3d
       0.121885166 -0.15718162 -0.03694274 0.10280007
0001f0 6f 44 e4 3d 39 fb 52 be 59 b1 52 3d 90 b6 d3 bd
       0.11145865 -0.20603646 0.051438663 -0.103375554
000200 18 27 34 3e 05 c4 de 3d 53 23 df 3c 38 b3 c2 3e
       0.17593038 0.108772315 0.027238524 0.38027358
000210 8a ad 3d 3e 53 df 15 3e c8 83 e6 bc 83 77 35 3e
       0.18523231 0.14635973 -0.02813901 0.17721371
000220 46 b6 06 3e 46 dd fa 3c ed 91 00 3f 0f 2e b0 3d
       0.1315547 0.03062309 0.50222665 0.08602535
000230 c5 31 db 3d b5 cf 67 3d 51 ff 8c 3d ba 6c b1 3d
       0.10702852 0.05659457 0.06884635 0.08663316
000240 cf 6c 93 3d 2f 65 26 3d 11 ce a0 3e bc 30 84 bc
       0.07198488 0.04062384 0.31407216 -0.01613652
000250 62 68 1d 3d fa d8 26 3e 58 fe eb 3c 9e 96 76 3e
       0.038429625 0.16293707 0.028807804 0.24080893
000260 f0 f6 84 3d 48 99 43 be 0e de 2b 3e b0 57 07 3e
       0.06492412 -0.19101441 0.16783926 0.13217044
000270 22 d5 56 3d 2a 8c 51 3d bc 6d 7a 3d 4c 9c 25 be
       0.052449353 0.05115906 0.061139807 -0.16172904
000280 a9 e8 95 bd 13 ac ab 3e e5 bb f8 be 1d 79 3c 3e
       -0.07319767 0.3352972 -0.48580852 0.18405576
000290 0e 28 92 3e 19 4b d3 3d 74 3c 8f 3c 1b cf 1d be
       0.28546184 0.10317058 0.017484881 -0.15411036
0002a0 2d 66 d5 3d 53 16 1a 3e a0 73 27 3e 4e a1 c4 3d
       0.10419879 0.15047579 0.16352701 0.09601079
0002b0 1e ff c8 3d 5e 56 47 be 80 17 a0 bc b9 ad 03 3d
       0.09814285 -0.1946654 -0.019542456 0.032148097
0002c0 35 95 b2 be e9 61 88 3e 40 36 a0 3e fc 95 40 3e
       -0.3487946 0.266372 0.3129139 0.18807214
0002d0 18 31 ff 3d a1 e8 32 be 4f ab 1e 3e 9c d8 b5 3d
       0.12460536 -0.17471553 0.15495037 0.088792056
0002e0 74 4a e9 3c 3c 7c 95 3d ba ac 17 3e e8 73 f0 3d
       0.028477885 0.072990865 0.14811984 0.11740857
0002f0 0f 1b 11 bd 86 39 d5 3d 4d 7a 9f 3e 51 75 28 3d
       -0.035426196 0.10411362 0.31147996 0.041127507
000300 3a 0b 37 be 41 9d 66 3d 01 af 8b 3d 01 41 85 bd
       -0.17875376 0.056302313 0.06820489 -0.06506539
000310 72 5c 34 be 06 87 b3 3e 79 a9 97 3d 1a 63 bf 3d
       -0.1761339 0.35063952 0.07405371 0.09345074

layers.2.running_mean f4 [200]
000000 be 57 23 3e b4 c5 8c 3d c9 70 c5 3c 48 1e fc 3c
       0.1595144 0.068736464 0.024101632 0.030776158
000010 35 d7 29 3d 0d f5 c1 3c 55 06 50 3c a8 b4 97 3c
       0.041465003 0.02367642 0.012696822 0.01851876
000020 8b 05 27 3d e8 55 b5 3e 75 3f 1d 3e de 97 a0 3e
       0.04077677 0.35417104 0.15356238 0.31365865
000030 c8 cf 3c 3d b2 bc cd 3d b3 3d 9c 3d 3c b8 65 3e
       0.046096593 0.100457564 0.07628956 0.22433561
000040 8a 5f 88 3e 4c 66 ad 3b ff 29 c1 3b 70 de 03 3e
       0.2663539 0.0052917358 0.005894899 0.12877822
000050 a5 12 29 3f 53 0f 54 3c 9c c9 f3 3e 45 28 ab 3e
       0.66044074 0.012943107 0.47614753 0.3342916
000060 88 23 b7 3c f1 a2 d2 3e 15 60 93 3c ce 1d 7a 3d
       0.02235581 0.4113994 0.017990151 0.06106358
000070 10 4c 0d 3d 37 d9 03 3f fd b8 c5 3c 0d 04 8c 3d
       0.034496367 0.5150332 0.02413606 0.0683671
000080 91 c1 ea 3d be 62 35 3d ea 8c 79 3d 44 74 d9 3d
       0.11462701 0.04428362 0.0609254 0.10617879
000090 83 17 f1 3d d5 bc c3 3b 0f c1 08 3e 94 c3 f7 3d
       0.11772063 0.0059734383 0.13354896 0.120978504
0000a0 64 e3 36 3d 57 9b 4f 3d 26 bb dd 3e cb e2 80 35
       0.04465045 0.050685253 0.43306845 9.602749e-07
0000b0 c8 c8 8f 3c 28 f7 0a 3d ea 70 d8 3c 65 36 fc 3b
       0.017551795 0.033927113 0.02642103 0.007696914
0000c0 03 95 a1 3d ca 6f 95 3a 8e 45 30 3b cc 88 e8 3e
       0.0788975 0.0011401114 0.0026896927 0.45416868
0000d0 a5 65 a3 3e 1e a6 b1 3d f5 0c 5a 3c 9d fd 63 3d
       0.31913486 0.086742625 0.013308753 0.055661786
0000e0 0d 1f be 3b e8 18 7e 3b 2c 52 6f 3e 80 c2 95 3e
       0.0058020414 0.003877217 0.2337119 0.29249954
0000f0 e8 f9 f0 3d 7c 57 18 3e b3 1f 4e 3c e5 c8 01 3e
       0.11766416 0.14877123 0.0125808 0.12674291
000100 9d 10 ab 3b a1 32 f8 3c 8a 80 b7 3e 94 46 64 3d
       0.0052204863 0.03029758 0.35840255 0.05573137
000110 33 50 4c 3c f0 ba 87 3d ac c5 76 3e 63 29 a6 3e
       0.012470293 0.066274524 0.24098843 0.3245345
000120 8e 7a 14 3d 13 a5 12 3f 8e a3 c6 3d 09 74 7e 3e
       0.03624969 0.57283133 0.09699164 0.24848951
000130 b2 e8 21 3e 80 03 04 3f 28 00 47 3d 5b 43 cb 3c
       0.15811422 0.5156784 0.048584133 0.024812391
000140 3b 0f 6f 3e 89 38 36 3c e9 66 04 3c 97 e9 01 3c
       0.23345654 0.0111218775 0.008081176 0.007929227
000150 5b cc 5c 3d f1 8a b7 3e 50 b6 61 3e 95 3f 7e 3e
       0.053905826 0.3584819 0.22042203 0.24828942
000160 de 2d 13 3f d1 f0 1b 3c f6 30 85 3d b0 03 10 3e
       0.5749186 0.009517864 0.06503479 0.14063907
000170 d9 0b 67 3e 3e e7 b4 3d 17 82 a0 3e 61 cc 44 3e
       0.22563113 0.088331684 0.3134925 0.1921859
000180 75 8f f4 3e c5 ff 10 3f 4b 94 9b 3b 3d e1 0e 3d
       0.477657 0.56640273 0.0047479025 0.034882773
000190 56 0a 50 3b a9 7e 06 3d 10 48 69 3b 4a 03 86 3c
       0.0031744442 0.032835636 0.003559593 0.01635899
0001a0 11 6f 1f 3e bb cb ed 3d 33 a7 ed 3d ed e2 16 3d
       0.15569712 0.11611124 0.11604156 0.036837507
0001b0 1d 59 95 3d 92 28 44 3c ca 29 b1 3e f5 4a bc 3a
       0.07292388 0.011972563 0.34602195 0.0014365601
0001c0 78 7a 4d 3e 89 31 e5 3d d2 1b 21 3e 13 51 cd 3c
       0.2006625 0.11191089 0.15733269 0.025063073
0001d0 6c e3 15 3e 5d c2 56 3c c4 ea e1 3e 14 e1 b4 3e
       0.14637536 0.013107863 0.44124424 0.3532797
0001e0 4c 61 aa 3b bc 7f 55 3e c5 c4 55 3d 5e 5c 40 3d
       0.005199587 0.20849508 0.052189607 0.04696309
0001f0 aa 98 26 3d ff 3d 4e 3e 3b a1 98 3b fd 98 50 3c
       0.040672936 0.20140837 0.004657892 0.012731788
000200 aa 83 8d 3e ba 73 9d 3b 44 40 f5 3e 9a d0 af 3d
       0.27639514 0.0048050554 0.47900593 0.085847095
000210 80 ce 92 3d 65 03 e9 3e 36 29 5e 3c 07 4a 2d 3b
       0.07168293 0.45510402 0.01355963 0.0026441829
000220 00 44 ae 3d 43 52 12 3d 8e bd dc 3c da e0 67 3e
       0.08509064 0.035722982 0.026945855 0.22644368
000230 82 fc 7a 3c 4a 43 d2 3e f2 a0 01 3e 99 93 c7 3e
       0.015318992 0.41066962 0.12659052 0.38979796
000240 aa e9 24 3c 76 c7 76 3e 3c b1 fc 3d 09 a1 56 35
       0.0100654755 0.24099526 0.12338492 7.995555e-07
000250 2a 9a 91 3e dc d2 b6 3e 72 16 7f 3b f9 37 d9 3d
       0.2843793 0.35707748 0.003892329 0.10606379
000260 c6 c1 69 3e 65 37 fd 3d a4 3c d7 3d 04 aa a6 3e
       0.22827825 0.12364081 0.10509613 0.32551587
000270 cd e1 73 3e d0 93 e0 3d 02 34 5b 3e ba 87 06 3d
       0.23816605 0.10965693 0.21406558 0.032844283
000280 a8 6c 30 3d 39 11 da 3d 44 0d c9 3c 5e c5 62 3e
       0.043072373 0.10647816 0.024542458 0.22145602
000290 2f 8a 78 3d e8 58 16 3d 66 fd 7b 3d 1a db c2 3e
       0.060678657 0.03670588 0.061520956 0.38057786
0002a0 8c c6 7b 3d 3e cb f3 3c 11 1d e7 3e c8 a7 17 3f
       0.061468646 0.02976 0.45139363 0.5924039
0002b0 d0 7c 99 3b ca 86 19 3e e0 53 0e 36 da f7 5a 3f
       0.0046840683 0.14992824 2.120847e-06 0.8553444
0002c0 c1 fb 10 3f 98 9c 3f 3e d8 38 e6 3d 31 1e 2f 3d
       0.56634146 0.1871208 0.11241311 0.042753402
0002d0 a5 ac 1b 3a 67 8e f7 3e e6 98 a0 3e d0 36 5d 3b
       0.0005938507 0.48350832 0.31366652 0.0033754595
0002e0 e6 cf bd 3e 6f b6 0b 3c eb 25 00 3e 2c 0b 74 3b
       0.37072676 0.008527382 0.12514465 0.0037238104
0002f0 36 a2 15 3c 2a 53 64 3d 9f 19 b4 3c b7 cc ea 3d
       0.009132912 0.055743374 0.021984873 0.114648275
000300 40 55 f0 3b 30 96 0b 3f aa 34 8a 3c 22 89 0a 3d
       0.0073343813 0.5452604 0.016870815 0.033822186
000310 3f 93 cf 3d f8 7c c6 3d ea 9d ac 3d cc 97 62 3d
       0.10135507 0.09691805 0.08428557 0.055320546

layers.2.running_var f4 [200]
000000 d5 44 c3 3f d4 c1 91 3e ba 09 08 3b 8e bc 27 3e
       1.5255381 0.28468192 0.002075775 0.16380522
000010 ec 8b b3 3b 71 0c 2b 3f 52 9e bd 3a 94 32 26 3f
       0.0054793265 0.6681586 0.0014466739 0.64920926
000020 8b b0 53 3c c8 5c 24 3f a2 14 90 3f 94 f8 d3 3e
       0.012920509 0.6420407 1.1256297 0.41400588
000030 08 68 fb 3e 9a 44 bf 3c e3 0c 16 3c 8b ec d2 3e
       0.49102807 0.023348141 0.009158346 0.41196093
000040 af d3 52 3f 1a 1e 89 3e 66 6f 38 3a 25 82 bd 3c
       0.82354254 0.26780778 0.00070356426 0.023133347
000050 74 b0 67 3c 65 00 8b 3e a5 83 6d 3f d5 e2 20 3f
       0.014141191 0.27148739 0.92779 0.6284612
000060 af f3 d2 3e e8 4e 11 3f 8a b0 cb 3e 4d a7 ba 3b
       0.4120154 0.56761026 0.39783126 0.0056962133
000070 b4 9c a8 3b 42 04 01 3d 99 0a 4a 3e 25 4a 52 3f
       0.0051456336 0.0314982 0.19730605 0.82144386
000080 dc 97 46 3c 03 f4 32 3f 43 64 47 3f 45 3c 6a 3c
       0.012121167 0.6990358 0.7788736 0.014296596
000090 c5 11 27 3f 1a 2c ad 3e b9 ea 20 3c c2 f4 ad 3c
       0.6526149 0.3382271 0.009821587 0.021234874
0000a0 4f e6 0e 3c 07 93 64 3c 0e 61 1e 3f e1 8c 7d 34
       0.008721902 0.01395107 0.61866844 2.3613713e-07
0000b0 0e 8c 21 3b d0 f9 2a 3f f3 1c 31 3b ba a3 ce 39
       0.002465013 0.66787434 0.0027025312 0.00039413368
0000c0 46 56 1b 3c b7 da 91 3c 88 f5 78 39 22 f9 e3 3f
       0.009481018 0.017804487 0.0002374259 1.7810404
0000d0 a8 80 65 3c 2f b3 23 3c 4b af 20 3e 25 c4 8a 3b
       0.014007725 0.009991451 0.15691869 0.004234808
0000e0 64 e4 e3 3d c6 50 b6 3d 91 3c 9e 3c 79 2e 33 3f
       0.111275464 0.08902125 0.01931599 0.69992787
0000f0 19 aa 5d 3c 2b f4 63 3f 2b 24 99 3b 24 42 b0 3c
       0.013529324 0.89044446 0.004673501 0.021515913
000100 ed 55 b8 39 36 61 67 3e e0 4f 87 3c 58 2a 14 3c
       0.00035159235 0.22595677 0.01651758 0.009043299
000110 1d f1 66 3e 7d f5 1b 3c b7 5c a7 3f 28 ee 7c 3f
       0.22552915 0.009518978 1.3075169 0.988009
000120 0d 90 0d 3f 5a 5c 5d 3c be 28 3a 3c 94 0a 2c 3d
       0.5529793 0.013510788 0.011362253 0.042002276
000130 10 d2 11 3c 6c 3a a1 3f be 28 9b 3e c3 81 01 3b
       0.00890018 1.2595954 0.3030452 0.0019761182
000140 1d 68 61 3d 1e 62 66 3a 6c e4 a3 39 7e 23 aa 3d
       0.05503093 0.00087884243 0.0003125997 0.08307551
000150 b7 ff f1 3b d7 bd 8b 3f 0a d8 48 3f e5 22 4f 3c
       0.00738522 1.091731 0.7845465 0.012642597
000160 b1 d8 26 3d 8e 9f df 39 99 7c 19 3f 24 75 b5 3c
       0.040733997 0.00042652752 0.59955746 0.022150584
000170 5c 33 79 3f 1b 31 01 3f 1d a4 07 3f 48 ac 57 3f
       0.97343993 0.50465554 0.5298479 0.84247255
000180 dc 3d b1 3c 46 c7 2b 3d a9 f7 89 39 06 3c 2f 3b
       0.021635942 0.04193809 0.00026315197 0.0026738658
000190 37 2b 40 39 e9 14 e6 3e 22 59 9e 3d ac c3 10 3e
       0.00018326646 0.44937828 0.077318445 0.14137143
0001a0 d4 6f 8a 3c e4 8b 12 3e e9 34 ee 3c 8d 06 a5 3d
       0.016899027 0.14311177 0.029077964 0.0805789
0001b0 bc 09 76 3e 9e ed 18 3f 34 bd 44 3f e3 90 eb 3c
       0.24027151 0.59737575 0.768512 0.02875561
0001c0 d4 98 c9 3e c2 35 53 3c af e6 89 3f b1 54 63 3b
       0.3937441 0.012891235 1.0773524 0.0034687931
0001d0 c7 6e b1 3c f2 06 30 3e 57 2d 0d 3f 4f 5f bc 3c
       0.021659268 0.1719015 0.5514731 0.022994665
0001e0 0f 1c 0b 3e 7f 5c 1b 3d 7f ae 17 3c 4d 68 9c 3b
       0.13584922 0.037930008 0.009257912 0.004773176
0001f0 2a a4 b9 3b f2 49 d2 3d c8 00 45 3e cc d6 a3 3a
       0.005665322 0.1026801 0.1923858 0.0012499928
000200 2e a8 07 3f e7 db 66 3e 9f 0a 2d 3f 9f 7f 41 3c
       0.52990997 0.22544824 0.6759433 0.011810212
000210 eb 56 d5 3c bc f7 38 3f 58 a6 84 3a d1 2f 92 3d
       0.026042422 0.7225301 0.0010120375 0.071380265
000220 41 81 db 3c 66 1a 38 3b dd 9b 0e 3b 36 ae 87 3f
       0.026795032 0.0028091907 0.0021760382 1.060004
000230 b2 aa 38 3e bf a4 25 3f 6a 4b a5 3b 23 0f 1e 3f
       0.18033865 0.6470451 0.0050443904 0.61741847
000240 7f 4a 2f 3a 06 e0 83 3f ba 6b b1 3c a6 8a 74 34
       0.0006686821 1.0302742 0.021657813 2.2774711e-07
000250 68 d6 62 3f 6f 14 47 3e 3d 5f 22 3e 66 52 69 3c
       0.8860841 0.19441389 0.15856643 0.014240837
000260 59 a6 13 3f 79 40 ce 3c 5a d8 d4 3c ad 45 7a 3f
       0.576757 0.025177227 0.02598207 0.97762567
000270 de e8 5b 3f c6 d7 3a 3f 8f 0c 9c 3c 30 f7 45 3b
       0.859022 0.72985494 0.019048957 0.003020715
000280 b8 57 c2 3d db 10 73 3c 56 2a 86 3a bd e6 f6 3e
       0.09489387 0.014835562 0.0010236006 0.48222914
000290 7a d8 2a 3c a1 52 a9 3c 63 95 a7 3c bb 2e 21 3e
       0.010427589 0.020669283 0.020456975 0.15740483
0002a0 1a da d4 3e 4d b6 61 3c 94 b0 f8 3e da 28 35 3c
       0.41572648 0.013776374 0.48572218 0.011057103
0002b0 b4 49 3e 3e 7e 90 99 3d cd 60 12 35 4d 1f a1 3c
       0.18582803 0.07498263 5.45301e-07 0.019668246
0002c0 ff 6f 21 3d 58 7f 3b 3c 52 b2 25 3c 4d bb d5 3d
       0.03941345 0.011443935 0.010113316 0.104361154
0002d0 55 11 09 39 9b e8 e5 3c a6 d1 b5 3e 61 3b 01 3e
       0.00013071795 0.028065016 0.35511512 0.12620308
0002e0 c2 23 57 3f fe 45 02 3b 7e e0 dc 3c db c1 97 3d
       0.8403894 0.0019878144 0.026962515 0.07410022
0002f0 a6 fe c0 3d 3f 80 0c 3f 58 97 13 3b 4e 4f 87 3f
       0.0942357 0.5488319 0.0022520628 1.0571077
000300 ea 74 4e 3a 65 12 3f 3f f2 68 da 3e 2f ac c0 3d
       0.0007875698 0.7463744 0.42658192 0.094078414
000310 70 42 9b 3d 48 23 25 3c 51 68 6a 3f 08 7f f2 3c
       0.07581031 0.0100792125 0.91565424 0.029601589

layers.4.weight f4 [100, 200]
000000 91 d7 7e bd 23 90 8b bd 56 56 8c 3d 15 75 92 3d
       -0.0622173 -0.06814601 0.06852405 0.07151238
000010 c0 e1 a0 3d 14 df af bd 3b b3 97 3c 3c ec c2 bb
       0.078555584 -0.08587471 0.018518081 -0.0059485715
000020 61 8e 71 3c ad c9 7d bd 78 31 6b bd dc 49 97 bc
       0.014743418 -0.06195991 -0.057420224 -0.018467836
000030 56 ea cb bd 00 c5 6d 3d 32 6f ad bd c5 4c cb bd
       -0.099568054 0.058049202 -0.084684744 -0.09926752
000040 86 e7 cd bc cd d8 7f bd 69 e2 4f 3d 81 9d 5f 3b
       -0.025134813 -0.062462617 0.05075303 0.003412098
000050 3b 8f 88 3e 14 6c 59 bd 0d 0d ed bd 2d 55 da bd
       0.26671776 -0.053081587 -0.11574755 -0.10660777
000060 57 95 e1 bd bd 60 cd bd b8 a9 49 bd ff 79 bb 3d
       -0.110148124 -0.10028217 -0.049234122 0.09154128
000070 57 99 ba 3c c1 a6 e9 3d 41 5a e8 bc c6 fd 06 be
       0.022778196 0.11408759 -0.028363349 -0.13182744
000080 90 8e 28 3c 06 17 29 bd ad b7 66 bc 2a f0 39 bd
       0.010287896 -0.041281722 -0.014081878 -0.045395054
000090 8b e2 03 be b6 11 d4 bd 54 e9 01 3e 7a 0f 72 bb
       -0.12879388 -0.103549406 0.12686664 -0.0036935494
0000a0 9f df 0b bc 77 9c 31 3d 7f f0 fa bd b1 6e 36 3e
       -0.008537202 0.043362107 -0.12252902 0.17815663
0000b0 01 b8 1f 3d 53 c2 c8 bd ab 14 9d 3c 3d 05 19 3e
       0.03899384 -0.098026894 0.019174894 0.14943404
0000c0 2c 96 b7 3d f6 2a 54 bd a9 d4 8d bd 53 d4 7f bd
       0.0896419 -0.051798783 -0.06925327 -0.062458348
0000d0 ed c8 02 3e 1c a2 58 3d 92 7b ee bd 74 ad 21 3e
       0.1277196 0.052888975 -0.11644663 0.15788823
0000e0 cc 24 5d bd 17 96 27 3d bc 2f f4 3c 62 89 87 bd
       -0.05399017 0.04091462 0.029807918 -0.066180006
0000f0 07 56 5b 3d 13 9c d7 bc 2b 4e 23 be 06 40 04 3d
       0.05354884 -0.02631954 -0.15947787 0.03228762
000100 83 06 85 3d d2 43 8c bd 37 fb 33 3e c7 19 92 3d
       0.06495383 -0.06848873 0.175763 0.07133823
000110 6b 51 ac 3d 24 d8 38 3d e0 be 29 bd 00 ec 60 bc
       0.08413967 0.045128003 -0.0414418 -0.013728142
000120 11 45 b6 bd 94 78 0d 3e da ad 2f 3b 15 00 ef 3c
       -0.08899892 0.13815528 0.0026806504 0.029174844
000130 25 5b ac bb 44 d2 a0 3d 00 0c 9e 3c 74 91 8f 3c
       -0.0052598887 0.07852605 0.019292831 0.017525412
000140 bc a4 7c bd 54 17 8b 3c ac b1 1c 3e a8 29 b6 bd
       -0.06168054 0.016978897 0.15302151 -0.08894664
000150 ad 0c ce 3c 81 aa 70 be d3 c1 b8 bc 14 49 55 3b
       0.025152529 -0.23502542 -0.02255336 0.0032544779
000160 c5 54 27 3d b4 a0 6d 3e 75 fe aa bc 3a 5c 80 3d
       0.040852327 0.23205835 -0.020873288 0.06267591
000170 d2 3c 54 bd d1 ae 5a 3c c1 1f 00 be 1d 4e 98 bd
       -0.051815815 0.013347344 -0.12512113 -0.07436774
000180 3d 88 9b 3c 7f 83 c1 3d 99 6e 13 3e 5f f3 b2 3d
       0.018985862 0.09448909 0.14397658 0.087378256
000190 da 7b 48 3e 81 42 9e bd 1b fc 7d 3d dd ab f1 bb
       0.19578496 -0.07727528 0.062008005 -0.007375224
0001a0 a7 6c c9 3d 57 96 bf bd 2c b0 cf ba 0d 26 5e bc
       0.09835177 -0.09354847 -0.001584535 -0.013558877
0001b0 ab f6 24 be c3 1a 26 be 6c 9b ca bc f3 30 e7 3c
       -0.16109721 -0.16221146 -0.024732314 0.028221583
0001c0 36 db 2a be 91 69 06 3e fb 63 7d 3c cd 86 f0 3d
       -0.16685185 0.13126208 0.015465732 0.11744461
0001d0 4b d5 2c bc 3a 8e b2 3d 45 4a d4 bd 5a 7f 92 bc
       -0.0105489 0.08718534 -0.10365728 -0.017882992
0001e0 50 34 9b 3c 3b 7e cb 3b c6 a0 c7 3d d5 8d 52 3d
       0.018945843 0.006210116 0.09747462 0.051404793
0001f0 87 fc 66 bc e2 1c 36 bc 59 17 02 be 07 7d 00 3e
       -0.014098293 -0.011115285 -0.12704219 0.12547694
000200 1a 42 5d 3d a5 25 77 3d 87 54 34 be 0b 93 d9 3d
       0.054018117 0.060338635 -0.1761037 0.10623749
000210 8a 5e ba 3d 5c 7b 75 3c b0 c4 22 3d e0 90 05 38
       0.09100063 0.014983024 0.039738357 3.1844596e-05
000220 a5 51 85 3d 5a 63 05 3d 92 b6 b2 3c 81 0e e0 bd
       0.06509713 0.032565452 0.021815572 -0.109402664
000230 92 03 95 bd a2 00 f5 bd ab 8e db bc 2c ad e9 3d
       -0.072760716 -0.11963011 -0.026801428 0.11409983
000240 8f cb 91 3d 3b 32 21 be 12 86 db 3c 5e 66 20 3e
       0.07118904 -0.15741818 0.026797328 0.1566405
000250 1e 42 53 bd 7a 2a cd bc 47 2c b0 ba a1 90 ef 3d
       -0.051576726 -0.025044668 -0.001344093 0.11697508
000260 c2 6f 4f 3d 13 92 8b bc f5 c0 61 bd ea 4a 0c be
       0.05064369 -0.017037427 -0.05511566 -0.13700452
000270 b2 ba bb bd 3f 4d 25 be 4f f8 0e 3d 36 6d fb 3c
       -0.09166469 -0.16142748 0.034904774 0.030691724
000280 64 ed 95 bc 6b b1 fb 3d 0c 97 4e 3e 4b 36 46 bd
       -0.018301673 0.12289699 0.20174807 -0.04839162
000290 c0 2b eb 3d a9 37 8e bd 57 eb 22 bc 91 55 a3 3c
       0.11482954 -0.0694421 -0.009943805 0.019938262
0002a0 cb ee a6 3a 58 f8 a4 bd 76 bc 0f be 2e bc 9f 3d
       0.0012735961 -0.0805518 -0.14036736 0.07799564
0002b0 e5 47 2d bd 1b 58 88 bd 56 7d 85 bd 56 ab 46 3e
       -0.042304892 -0.0665743 -0.065180466 0.19401297
0002c0 40 c8 3c 3a 8e ef 5d 3d 98 f4 d6 3d e6 41 c3 bc
       0.00072014704 0.054183535 0.10495871 -0.023835134
0002d0 10 a9 fe bd 17 26 21 3e f8 9f 9e bd 0e bc 4b bd
       -0.1243459 0.15737186 -0.07745355 -0.04973989
0002e0 cc 50 09 bd c7 a5 e0 bd e9 21 ba 3d 02 7c 18 be
       -0.03352432 -0.109691195 0.09088499 -0.14891055
0002f0 f1 66 95 bd 60 1f 15 be 72 8e d2 3c 39 ba 6c bd
       -0.07295025 -0.1456275 0.025702689 -0.057794783
000300 5e cc ab 3c a4 02 9a bd 12 7d 1b be 3b ee ff bd
       0.020971473 -0.07520035 -0.1518443 -0.12496611
000310 c1 ff 52 bc 61 25 01 3e 98 79 f3 bd af 49 8e bd
       -0.012878359 0.12611915 -0.118884265 -0.06947648
000320 5e fa ff bd f4 ed 4c bd bd 97 93 3d 73 75 42 bc
       -0.124989256 -0.050031617 0.07206676 -0.011868822
000330 c9 1a a0 3d 21 62 33 bd 2b 9f 55 3d de fc 35 bd
       0.07817609 -0.043794755 0.052153748 -0.044430606
000340 d3 fb d0 bc 5d 0c c4 bd a3 62 21 bd f5 03 a0 bd
       -0.025510704 -0.095726706 -0.039400708 -0.07813255
000350 d8 c0 a0 bd 6c 27 a3 3d 3e 5f cc 3d 34 6b b9 bd
       -0.07849282 0.079665035 0.099791035 -0.090536505
000360 c2 04 09 be 68 45 f2 bd ea ac c6 3c 76 56 c0 3c
       -0.13380721 -0.118296444 0.024252374 0.023478728
000370 dd 8c 11 3e cf 90 68 bc b6 ec f2 bd aa 80 04 be
       0.14213891 -0.014194681 -0.11861555 -0.12939706
000380 18 12 13 3d 35 25 b2 bd 90 cb 9e bd ba 02 d8 3c
       0.035905927 -0.08698503 -0.0775367 0.026368488
000390 39 1e f8 3b a6 5f 84 3d ba 11 df bb 5b f3 40 bd
       0.007571962 0.06463556 -0.006807533 -0.04710708
0003a0 66 79 03 3e cc d0 35 bd cc d3 8d bd 17 fd f0 bc
       0.12839279 -0.044388577 -0.06925163 -0.029417558
0003b0 e1 50 01 be 3a 93 ab bb 17 62 c4 3d 43 2a 8b 3d
       -0.12628509 -0.0052360566 0.09589022 0.0679517
0003c0 67 19 74 bc f3 b2 51 bc d6 8c 10 be 0c 2d 54 3e
       -0.0148986345 -0.0127990125 -0.14116225 0.20720309
0003d0 4f 0d 09 3d 0c e9 ff bd 49 90 2a 3b 39 81 39 3e
       0.033459958 -0.12495622 0.0026025942 0.18115701
0003e0 c6 98 61 3d 93 91 0d bd b9 e6 b4 3c 8a a7 1b be
       0.055077337 -0.03456266 0.022082673 -0.1520063
0003f0 76 23 46 3c ad 15 a1 bc 6f bf 99 bc 1b 62 83 3e
       0.0120934155 -0.019663656 -0.01876804 0.25660786

layers.4.bias f4 [100]
000000 f5 52 73 bd 27 a0 69 be 5b 3c 2f 3d 0f 28 ac bb
       -0.059405286 -0.22815 0.04278217 -0.005253799
000010 ac 47 a4 bc a5 8b d7 3d 04 fa a6 bd bb 59 78 3d
       -0.020053707 0.10524682 -0.081531554 0.06063245
000020 87 6e fe bb 94 1c b8 bd b5 dc cd 3c 11 c8 f7 3d
       -0.0077646407 -0.08989826 0.025129655 0.120987065
000030 fa ea 16 be c1 0c b5 bb e7 28 fe 3d ca 7b 70 bc
       -0.14738074 -0.005525202 0.12410145 -0.014677951
000040 d6 54 89 3c 46 e8 35 3e 95 05 63 be f3 9a 78 3c
       0.016764086 0.17764387 -0.22170098 0.0151736615
000050 60 cf bf bd ba fd b7 3a 2c 5f b7 3d 12 00 aa bd
       -0.093657255 0.0014037408 0.089536995 -0.08300795
000060 55 2c 20 3d 42 cf 8e bd e9 b8 6b bd fe 36 b7 bd
       0.03910478 -0.06973125 -0.05754939 -0.08946036
000070 80 41 70 bb 45 4e 9d 3c 31 5d 5e bd 4d 57 56 bd
       -0.0036660135 0.01920236 -0.054288093 -0.05232935
000080 82 68 f1 3c bc 1c fa bd 36 c2 ae bc 9d 48 1d 3d
       0.029468779 -0.12212512 -0.021332841 0.038399328
000090 80 62 30 3d 95 aa c2 3e 37 88 4c be bb b9 11 3e
       0.043062687 0.3802077 -0.19973837 0.14231007
0000a0 20 1c 19 bd 6f f3 d9 3b a8 bb 2c be 60 75 ba bd
       -0.037380338 0.006651334 -0.1686846 -0.09104419
0000b0 66 91 e6 bc 2f 27 38 bd dc d9 8b 3e c2 3c 42 bd
       -0.028145503 -0.044959243 0.2731465 -0.047421224
0000c0 e9 f1 22 be 41 14 01 bd e1 7b fc bd c8 de 0b 3d
       -0.15912594 -0.031513456 -0.123283155 0.034148008
0000d0 47 73 23 be e1 80 02 3d 5b a2 e4 bd 21 96 6c be
       -0.15961944 0.03186119 -0.11163779 -0.23104145
0000e0 2d ae 08 be 25 18 4c be 32 18 89 be 0a db 07 bb
       -0.13347693 -0.19931085 -0.26776272 -0.0020729923
0000f0 ff 20 9e bd f9 e9 c5 bb cf 22 64 bd 1d 72 37 be
       -0.07721137 -0.0060398546 -0.05569726 -0.17914625
000100 ce b3 0f 3e ec 24 00 be ad 4f 3f 3d 82 d5 01 be
       0.14033434 -0.12514085 0.046706844 -0.12679103
000110 4f 06 11 bd b6 f6 a2 3d b8 00 2e be 0b 7e 0f be
       -0.035406407 0.079572126 -0.16992462 -0.14012925
000120 d3 ee d0 3d 71 29 73 be 7b 42 c4 bd b3 49 cc bd
       0.10201802 -0.23746277 -0.09582993 -0.099749945
000130 c2 c7 ac bd f0 07 00 3d 89 f8 f5 3d cc 4a c7 3d
       -0.08436538 0.03125757 0.12010295 0.09731063
000140 2a 3c 2b bb ce 27 ea bd 3b 43 2e bc 83 f7 d7 bc
       -0.002612839 -0.114333734 -0.010636146 -0.02636314
000150 dd 26 ff bd 93 2c c4 3d 2a 38 de bd e9 b7 6c be
       -0.124585845 0.09578814 -0.10850556 -0.23117031
000160 8d b0 16 3d 99 90 61 bd c9 1f d3 3d ba ea f9 3d
       0.036789466 -0.05506954 0.10308797 0.12202974
000170 92 9d 1e 3d c3 61 0f bd 65 c4 26 3d bb 6c eb 3d
       0.03872449 -0.035005342 0.04071464 0.11495348
000180 26 1d 64 be c1 d4 4b 3c 5c d1 9b bd f2 fe 0e be
       -0.22276744 0.012440861 -0.076082915 -0.13964441

layers.6.weight f4 [100]
000000 ba 77 75 3f 60 3f 76 3f 0e a6 8b 3f cb d7 40 3f
       0.95885813 0.9619045 1.0910051 0.75329274
000010 15 5b 74 3f 06 d1 57 3f 1f ce 91 3f f3 dd 97 3f
       0.9545148 0.8430332 1.1391028 1.1864609
000020 87 2b 65 3f f8 0c 82 3f f8 8a 96 3f 64 3e 9b 3f
       0.8951954 1.0160208 1.176116 1.2128415
000030 90 43 71 3f 31 5f 90 3f ce cc 83 3f 3d 7d 43 3f
       0.9424372 1.127905 1.0296876 0.76362973
000040 fc 48 55 3f 93 6f 8e 3f da f3 82 3f db f1 72 3f
       0.8331449 1.11278 1.0230668 0.9490029
000050 87 15 83 3f a0 45 94 3f d2 0d 48 3f b2 db 6c 3f
       1.0240945 1.1583748 0.7814609 0.9252273
000060 59 ba 99 3f e5 61 36 3f 33 c9 8f 3f 7c 4e 68 3f
       1.2009994 0.71243125 1.1233276 0.9074476
000070 d1 8b 60 3f d5 09 65 3f 3e b5 6f 3f 38 b1 6e 3f
       0.8771334 0.8946813 0.9363593 0.93239164
000080 e0 b6 9a 3f 0b ec 99 3f ba 4e 8c 3f 27 ac 97 3f
       1.2087059 1.202516 1.0961525 1.1849412
000090 ab 0a 8d 3f 53 86 82 3f 9a 52 8e 3f d7 50 99 3f
       1.1018881 1.0197242 1.1118958 1.1977795
0000a0 1f 5f 9a 3f d1 22 99 3f e7 bf 68 3f cf ee 49 3f
       1.2060279 1.196375 0.9091782 0.7888002
0000b0 63 30 27 3f a4 f2 81 3f fc ad 4e 3f 9e 9c 80 3f
       0.6530821 1.0152173 0.8073423 1.0047796
0000c0 a4 67 82 3f 42 17 90 3f 64 08 69 3f c4 06 88 3f
       1.0187879 1.1257098 0.9102843 1.0627065
0000d0 86 3f 47 3f 23 e4 68 3f d7 d1 6c 3f b0 40 7d 3f
       0.77831304 0.9097311 0.9250769 0.9892683
0000e0 96 b1 78 3f ef 05 39 3f ed 47 56 3f fe 77 95 3f
       0.97145975 0.7227468 0.837035 1.1677244
0000f0 3f 42 5d 3f d4 41 48 3f 05 4a 93 3f 84 e9 6c 3f
       0.8642921 0.78225446 1.1506964 0.92543817
000100 8f 06 78 3f b4 dc 62 3f ce 3b 8f 3f 47 f2 7a 3f
       0.9688501 0.88618016 1.1190126 0.98025936
000110 d5 aa 82 3f f3 ee 61 3f 94 27 70 3f 36 9a 40 3f
       1.0208384 0.8825523 0.9381039 0.7523531
000120 88 2f 5a 3f 02 71 76 3f bb 68 94 3f 2b b6 60 3f
       0.85228777 0.96266186 1.1594461 0.87777966
000130 e3 88 90 3f da 73 8f 3f c3 2b 9c 3f 07 ed 52 3f
       1.1291775 1.120723 1.2200855 0.82392925
000140 ce 3f 93 3f 61 12 60 3f 59 2a 90 3f 8d 20 7a 3f
       1.1503847 0.87528044 1.1262923 0.9770592
000150 7d 31 6c 3f 5a 99 7a 3f 26 1e 7d 3f 5d ec 68 3f
       0.92263013 0.97890246 0.9887413 0.9098566
000160 dc 89 92 3f 86 1e 42 3f d5 33 91 3f 9e f8 51 3f
       1.1448321 0.75827825 1.1343943 0.82019985
000170 fb 4b 63 3f e3 b8 8e 3f e3 35 72 3f 69 62 91 3f
       0.8878781 1.1150173 0.94613475 1.1358157
000180 9f d4 7b 3f b0 db 4f 3f 8a 79 29 3f aa fd 68 3f
       0.9837131 0.8119459 0.6620108 0.9101206

layers.6.bias f4 [100]
000000 8a fd 20 3e 5a 68 a4 3e 83 ef 9e bd 5f bc 06 3e
       0.15721717 0.32110864 -0.07760527 0.13157795
000010 a6 69 57 bc 20 b0 6c 3c d8 43 1b bd 1e b0 c5 bd
       -0.013147747 0.014446288 -0.037906498 -0.09652732
000020 95 27 87 bd 93 b3 39 3d 4f e7 ae bd b2 37 54 bd
       -0.065993465 0.04533727 -0.08540212 -0.051810928
000030 17 5b 80 3e 69 1f 83 bd b5 a1 bf 3e 3a 2e 10 3e
       0.25069496 -0.064024754 0.3742806 0.14080134
000040 7a 4a 61 3d c5 a8 97 bc e7 0f 92 3e 66 ea 01 3e
       0.055002667 -0.018513093 0.28527758 0.12687072
000050 83 1d 8b 3d 5f 09 fb bd 0c 56 63 3b 2f 86 0e 3d
       0.06792738 -0.12257647 0.003468874 0.034795936
000060 dc 91 77 bd 2d d0 26 3e 34 8c d3 bd 0f 70 8e 3d
       -0.060441837 0.1629035 -0.10329476 0.06954967
000070 6e 25 fb 3d 18 24 84 3e af e8 b5 3e 07 b1 4a bd
       0.122629985 0.25808787 0.35529086 -0.049485233
000080 4b 10 86 bd 16 3d 1f bd c0 07 34 bd 6c fe 91 bd
       -0.065460764 -0.038876615 -0.043952703 -0.07128605
000090 ba 86 a8 bd 8c 3a ff 3d f4 d8 14 3e 4a e4 33 bd
       -0.08228822 0.12462339 0.14535886 -0.043918885
0000a0 59 16 e1 bd 7b fc a4 bd cd 50 70 bd 72 34 bb bd
       -0.109905906 -0.08055969 -0.058670808 -0.091408625
0000b0 94 b8 b4 3d 13 0e ca bc 93 eb 4c be 45 a7 96 3e
       0.08824268 -0.024664914 -0.2001174 0.29424492
0000c0 20 2b b9 bc f2 f0 53 bd 06 2b 24 3d 8f 5c 1c 3e
       -0.022603571 -0.051743455 0.040080093 0.15269683
0000d0 4c 04 06 3e 80 0d 9b 3d ee a7 7a 3d 0c 2c b3 3c
       0.13087577 0.07570934 0.061195306 0.02187159
0000e0 a3 24 0d 3e 51 77 56 3e 09 0f 51 3e 8d a2 d7 bc
       0.13783507 0.20943953 0.20415892 -0.026322627
0000f0 20 87 26 bd 1d cc ab 3d 50 1e b1 bd e8 23 de 3d
       -0.04065621 0.08388541 -0.0864836 0.10846692
000100 23 bb 9b bc a9 a1 87 3e 18 eb a8 bd 66 9e 85 bd
       -0.019010132 0.26490524 -0.082479656 -0.06524353
000110 62 a6 3b 3b e3 5b b7 3d 06 77 8f 3e 93 94 2e 3e
       0.0028633107 0.08953073 0.28020495 0.17048864
000120 0a 1d bb 3d 0d b7 04 3e 62 a7 99 bd e9 9b de 3d
       0.09136398 0.12960453 -0.07502629 0.10869581
000130 8b 97 0c be fe fc 37 bd 7e d7 1f bd 81 0a 38 3e
       -0.13729684 -0.044919007 -0.03902387 0.17972757
000140 bc ea ca bd 79 38 aa bd dd e2 45 bd 7f 08 10 3d
       -0.09908053 -0.083115526 -0.048312057 0.035164353
000150 e4 2e 32 3d 38 a7 06 bd 97 1a 5a 3e f9 0a 48 3e
       0.04350175 -0.032874316 0.21299206 0.19535436
000160 91 11 dc bc dc 2e 4e 3b b0 65 bb bc c0 0a 80 3e
       -0.026863845 0.0031461036 -0.022875637 0.25008202
000170 19 aa 02 3e 58 b6 da bd 81 3b a8 bc a9 7d 68 bd
       0.127602 -0.106793106 -0.020536186 -0.056760464
000180 84 a3 3c 3e 7f c7 e6 3d 87 61 b1 bd fe 4b dc 3d
       0.18421751 0.112685196 -0.0866118 0.10756682
